…
====================================================================================================
Model Type: HistoAutoencoder
Input Shape: (1, 3, 256, 256)
Total Parameters: 34,544,963
Trainable Parameters: 34,544,963
Model Size: 131.78 MB

LAYER-BY-LAYER BREAKDOWN:
----------------------------------------------------------------------------------------------------
Layer Name                     Type                 Input Shape               Output Shape              Params    
----------------------------------------------------------------------------------------------------
encoder1.0                     Conv2d               [(1, 3, 256, 256)]        (1, 64, 256, 256)         1792      
encoder1.1                     BatchNorm2d          [(1, 64, 256, 256)]       (1, 64, 256, 256)         128       
encoder1.2                     LeakyReLU            [(1, 64, 256, 256)]       (1, 64, 256, 256)         0         
encoder1.3                     Conv2d               [(1, 64, 256, 256)]       (1, 64, 256, 256)         36928     
encoder1.4                     BatchNorm2d          [(1, 64, 256, 256)]       (1, 64, 256, 256)         128       
encoder1.5                     LeakyReLU            [(1, 64, 256, 256)]       (1, 64, 256, 256)         0         
encoder1.6                     MaxPool2d            [(1, 64, 256, 256)]       (1, 64, 128, 128)         0         
encoder2.0                     Conv2d               [(1, 64, 128, 128)]       (1, 128, 128, 128)        73856     
encoder2.1                     BatchNorm2d          [(1, 128, 128, 128)]      (1, 128, 128, 128)        256       
encoder2.2                     LeakyReLU            [(1, 128, 128, 128)]      (1, 128, 128, 128)        0         
encoder2.3                     Conv2d               [(1, 128, 128, 128)]      (1, 128, 128, 128)        147584    
encoder2.4                     BatchNorm2d          [(1, 128, 128, 128)]      (1, 128, 128, 128)        256       
encoder2.5                     LeakyReLU            [(1, 128, 128, 128)]      (1, 128, 128, 128)        0         
encoder2.6                     MaxPool2d            [(1, 128, 128, 128)]      (1, 128, 64, 64)          0         
encoder3.0                     Conv2d               [(1, 128, 64, 64)]        (1, 256, 64, 64)          295168    
encoder3.1                     BatchNorm2d          [(1, 256, 64, 64)]        (1, 256, 64, 64)          512       
encoder3.2                     LeakyReLU            [(1, 256, 64, 64)]        (1, 256, 64, 64)          0         
encoder3.3                     Conv2d               [(1, 256, 64, 64)]        (1, 256, 64, 64)          590080    
encoder3.4                     BatchNorm2d          [(1, 256, 64, 64)]        (1, 256, 64, 64)          512       
encoder3.5                     LeakyReLU            [(1, 256, 64, 64)]        (1, 256, 64, 64)          0         
encoder3.6                     MaxPool2d            [(1, 256, 64, 64)]        (1, 256, 32, 32)          0         
encoder4.0                     Conv2d               [(1, 256, 32, 32)]        (1, 512, 32, 32)          1180160   
encoder4.1                     BatchNorm2d          [(1, 512, 32, 32)]        (1, 512, 32, 32)          1024      
encoder4.2                     LeakyReLU            [(1, 512, 32, 32)]        (1, 512, 32, 32)          0         
encoder4.3                     Conv2d               [(1, 512, 32, 32)]        (1, 512, 32, 32)          2359808   
encoder4.4                     BatchNorm2d          [(1, 512, 32, 32)]        (1, 512, 32, 32)          1024      
encoder4.5                     LeakyReLU            [(1, 512, 32, 32)]        (1, 512, 32, 32)          0         
encoder4.6                     MaxPool2d            [(1, 512, 32, 32)]        (1, 512, 16, 16)          0         
bottleneck.0                   Conv2d               [(1, 512, 16, 16)]        (1, 1024, 16, 16)         4719616   
bottleneck.1                   BatchNorm2d          [(1, 1024, 16, 16)]       (1, 1024, 16, 16)         2048      
bottleneck.2                   LeakyReLU            [(1, 1024, 16, 16)]       (1, 1024, 16, 16)         0         
bottleneck.3                   Conv2d               [(1, 1024, 16, 16)]       (1, 1024, 16, 16)         9438208   
bottleneck.4                   BatchNorm2d          [(1, 1024, 16, 16)]       (1, 1024, 16, 16)         2048      
bottleneck.5                   LeakyReLU            [(1, 1024, 16, 16)]       (1, 1024, 16, 16)         0         
decoder4.0                     ConvTranspose2d      [(1, 1024, 16, 16)]       (1, 512, 32, 32)          8389120   
decoder4.1                     BatchNorm2d          [(1, 512, 32, 32)]        (1, 512, 32, 32)          1024      
decoder4.2                     LeakyReLU            [(1, 512, 32, 32)]        (1, 512, 32, 32)          0         
decoder4.3                     Conv2d               [(1, 512, 32, 32)]        (1, 512, 32, 32)          2359808   
decoder4.4                     BatchNorm2d          [(1, 512, 32, 32)]        (1, 512, 32, 32)          1024      
decoder4.5                     LeakyReLU            [(1, 512, 32, 32)]        (1, 512, 32, 32)          0         
decoder3.0                     ConvTranspose2d      [(1, 768, 32, 32)]        (1, 256, 64, 64)          3145984   
decoder3.1                     BatchNorm2d          [(1, 256, 64, 64)]        (1, 256, 64, 64)          512       
decoder3.2                     LeakyReLU            [(1, 256, 64, 64)]        (1, 256, 64, 64)          0         
decoder3.3                     Conv2d               [(1, 256, 64, 64)]        (1, 256, 64, 64)          590080    
decoder3.4                     BatchNorm2d          [(1, 256, 64, 64)]        (1, 256, 64, 64)          512       
decoder3.5                     LeakyReLU            [(1, 256, 64, 64)]        (1, 256, 64, 64)          0         
decoder2.0                     ConvTranspose2d      [(1, 384, 64, 64)]        (1, 128, 128, 128)        786560    
decoder2.1                     BatchNorm2d          [(1, 128, 128, 128)]      (1, 128, 128, 128)        256       
decoder2.2                     LeakyReLU            [(1, 128, 128, 128)]      (1, 128, 128, 128)        0         
decoder2.3                     Conv2d               [(1, 128, 128, 128)]      (1, 128, 128, 128)        147584    
decoder2.4                     BatchNorm2d          [(1, 128, 128, 128)]      (1, 128, 128, 128)        256       
decoder2.5                     LeakyReLU            [(1, 128, 128, 128)]      (1, 128, 128, 128)        0         
decoder1.0                     ConvTranspose2d      [(1, 192, 128, 128)]      (1, 64, 256, 256)         196672    
decoder1.1                     BatchNorm2d          [(1, 64, 256, 256)]       (1, 64, 256, 256)         128       
decoder1.2                     LeakyReLU            [(1, 64, 256, 256)]       (1, 64, 256, 256)         0         
decoder1.3                     Conv2d               [(1, 64, 256, 256)]       (1, 64, 256, 256)         36928     
decoder1.4                     BatchNorm2d          [(1, 64, 256, 256)]       (1, 64, 256, 256)         128       
decoder1.5                     LeakyReLU            [(1, 64, 256, 256)]       (1, 64, 256, 256)         0         
final.0                        Conv2d               [(1, 64, 256, 256)]       (1, 64, 256, 256)         36928     
final.1                        BatchNorm2d          [(1, 64, 256, 256)]       (1, 64, 256, 256)         128       
final.2                        LeakyReLU            [(1, 64, 256, 256)]       (1, 64, 256, 256)         0         
final.3                        Conv2d               [(1, 64, 256, 256)]       (1, 3, 256, 256)          195       
final.4                        Sigmoid              [(1, 3, 256, 256)]        (1, 3, 256, 256)          0         
----------------------------------------------------------------------------------------------------
Estimated Forward Pass Memory: 423.00 MB



====================================================================================================
DATA FLOW MAP - BASIC AUTOENCODER
====================================================================================================

    INPUT: [B, 3, 256, 256] - RGB Histology Image
…
====================================================================================================
Model Type: DeepHistoAutoencoder
Input Shape: (1, 3, 256, 256)
Total Parameters: 133,288,259
Trainable Parameters: 133,288,259
Model Size: 508.45 MB

LAYER-BY-LAYER BREAKDOWN:
----------------------------------------------------------------------------------------------------
Layer Name                     Type                 Input Shape               Output Shape              Params    
----------------------------------------------------------------------------------------------------
initial.0                      Conv2d               [(1, 3, 256, 256)]        (1, 64, 256, 256)         9472      
initial.1                      BatchNorm2d          [(1, 64, 256, 256)]       (1, 64, 256, 256)         128       
initial.2                      LeakyReLU            [(1, 64, 256, 256)]       (1, 64, 256, 256)         0         
encoder1.0                     Conv2d               [(1, 64, 256, 256)]       (1, 128, 128, 128)        73856     
encoder1.1                     BatchNorm2d          [(1, 128, 128, 128)]      (1, 128, 128, 128)        256       
encoder1.2                     LeakyReLU            [(1, 128, 128, 128)]      (1, 128, 128, 128)        0         
encoder1.3.conv1               Conv2d               [(1, 128, 128, 128)]      (1, 128, 128, 128)        147584    
encoder1.3.bn1                 BatchNorm2d          [(1, 128, 128, 128)]      (1, 128, 128, 128)        256       
encoder1.3.conv2               Conv2d               [(1, 128, 128, 128)]      (1, 128, 128, 128)        147584    
encoder1.3.bn2                 BatchNorm2d          [(1, 128, 128, 128)]      (1, 128, 128, 128)        256       
encoder1.4.conv1               Conv2d               [(1, 128, 128, 128)]      (1, 128, 128, 128)        147584    
encoder1.4.bn1                 BatchNorm2d          [(1, 128, 128, 128)]      (1, 128, 128, 128)        256       
encoder1.4.conv2               Conv2d               [(1, 128, 128, 128)]      (1, 128, 128, 128)        147584    
encoder1.4.bn2                 BatchNorm2d          [(1, 128, 128, 128)]      (1, 128, 128, 128)        256       
encoder2.0                     Conv2d               [(1, 128, 128, 128)]      (1, 256, 64, 64)          295168    
encoder2.1                     BatchNorm2d          [(1, 256, 64, 64)]        (1, 256, 64, 64)          512       
encoder2.2                     LeakyReLU            [(1, 256, 64, 64)]        (1, 256, 64, 64)          0         
encoder2.3.conv1               Conv2d               [(1, 256, 64, 64)]        (1, 256, 64, 64)          590080    
encoder2.3.bn1                 BatchNorm2d          [(1, 256, 64, 64)]        (1, 256, 64, 64)          512       
encoder2.3.conv2               Conv2d               [(1, 256, 64, 64)]        (1, 256, 64, 64)          590080    
encoder2.3.bn2                 BatchNorm2d          [(1, 256, 64, 64)]        (1, 256, 64, 64)          512       
encoder2.4.conv1               Conv2d               [(1, 256, 64, 64)]        (1, 256, 64, 64)          590080    
encoder2.4.bn1                 BatchNorm2d          [(1, 256, 64, 64)]        (1, 256, 64, 64)          512       
encoder2.4.conv2               Conv2d               [(1, 256, 64, 64)]        (1, 256, 64, 64)          590080    
encoder2.4.bn2                 BatchNorm2d          [(1, 256, 64, 64)]        (1, 256, 64, 64)          512       
encoder3.0                     Conv2d               [(1, 256, 64, 64)]        (1, 512, 32, 32)          1180160   
encoder3.1                     BatchNorm2d          [(1, 512, 32, 32)]        (1, 512, 32, 32)          1024      
encoder3.2                     LeakyReLU            [(1, 512, 32, 32)]        (1, 512, 32, 32)          0         
encoder3.3.conv1               Conv2d               [(1, 512, 32, 32)]        (1, 512, 32, 32)          2359808   
encoder3.3.bn1                 BatchNorm2d          [(1, 512, 32, 32)]        (1, 512, 32, 32)          1024      
encoder3.3.conv2               Conv2d               [(1, 512, 32, 32)]        (1, 512, 32, 32)          2359808   
encoder3.3.bn2                 BatchNorm2d          [(1, 512, 32, 32)]        (1, 512, 32, 32)          1024      
encoder3.4.conv1               Conv2d               [(1, 512, 32, 32)]        (1, 512, 32, 32)          2359808   
encoder3.4.bn1                 BatchNorm2d          [(1, 512, 32, 32)]        (1, 512, 32, 32)          1024      
encoder3.4.conv2               Conv2d               [(1, 512, 32, 32)]        (1, 512, 32, 32)          2359808   
encoder3.4.bn2                 BatchNorm2d          [(1, 512, 32, 32)]        (1, 512, 32, 32)          1024      
encoder4.0                     Conv2d               [(1, 512, 32, 32)]        (1, 1024, 16, 16)         4719616   
encoder4.1                     BatchNorm2d          [(1, 1024, 16, 16)]       (1, 1024, 16, 16)         2048      
encoder4.2                     LeakyReLU            [(1, 1024, 16, 16)]       (1, 1024, 16, 16)         0         
encoder4.3.conv1               Conv2d               [(1, 1024, 16, 16)]       (1, 1024, 16, 16)         9438208   
encoder4.3.bn1                 BatchNorm2d          [(1, 1024, 16, 16)]       (1, 1024, 16, 16)         2048      
encoder4.3.conv2               Conv2d               [(1, 1024, 16, 16)]       (1, 1024, 16, 16)         9438208   
encoder4.3.bn2                 BatchNorm2d          [(1, 1024, 16, 16)]       (1, 1024, 16, 16)         2048      
encoder4.4.conv1               Conv2d               [(1, 1024, 16, 16)]       (1, 1024, 16, 16)         9438208   
encoder4.4.bn1                 BatchNorm2d          [(1, 1024, 16, 16)]       (1, 1024, 16, 16)         2048      
encoder4.4.conv2               Conv2d               [(1, 1024, 16, 16)]       (1, 1024, 16, 16)         9438208   
encoder4.4.bn2                 BatchNorm2d          [(1, 1024, 16, 16)]       (1, 1024, 16, 16)         2048      
bottleneck.0.conv1             Conv2d               [(1, 1024, 16, 16)]       (1, 1024, 16, 16)         9438208   
bottleneck.0.bn1               BatchNorm2d          [(1, 1024, 16, 16)]       (1, 1024, 16, 16)         2048      
bottleneck.0.conv2             Conv2d               [(1, 1024, 16, 16)]       (1, 1024, 16, 16)         9438208   
bottleneck.0.bn2               BatchNorm2d          [(1, 1024, 16, 16)]       (1, 1024, 16, 16)         2048      
bottleneck.1.conv1             Conv2d               [(1, 1024, 16, 16)]       (1, 1024, 16, 16)         9438208   
bottleneck.1.bn1               BatchNorm2d          [(1, 1024, 16, 16)]       (1, 1024, 16, 16)         2048      
bottleneck.1.conv2             Conv2d               [(1, 1024, 16, 16)]       (1, 1024, 16, 16)         9438208   
bottleneck.1.bn2               BatchNorm2d          [(1, 1024, 16, 16)]       (1, 1024, 16, 16)         2048      
bottleneck.2.conv1             Conv2d               [(1, 1024, 16, 16)]       (1, 1024, 16, 16)         9438208   
bottleneck.2.bn1               BatchNorm2d          [(1, 1024, 16, 16)]       (1, 1024, 16, 16)         2048      
bottleneck.2.conv2             Conv2d               [(1, 1024, 16, 16)]       (1, 1024, 16, 16)         9438208   
bottleneck.2.bn2               BatchNorm2d          [(1, 1024, 16, 16)]       (1, 1024, 16, 16)         2048      
decoder4.0                     ConvTranspose2d      [(1, 1024, 16, 16)]       (1, 512, 32, 32)          8389120   
decoder4.1                     BatchNorm2d          [(1, 512, 32, 32)]        (1, 512, 32, 32)          1024      
decoder4.2                     LeakyReLU            [(1, 512, 32, 32)]        (1, 512, 32, 32)          0         
decoder4.3.conv1               Conv2d               [(1, 512, 32, 32)]        (1, 512, 32, 32)          2359808   
decoder4.3.bn1                 BatchNorm2d          [(1, 512, 32, 32)]        (1, 512, 32, 32)          1024      
decoder4.3.conv2               Conv2d               [(1, 512, 32, 32)]        (1, 512, 32, 32)          2359808   
decoder4.3.bn2                 BatchNorm2d          [(1, 512, 32, 32)]        (1, 512, 32, 32)          1024      
decoder3.0                     ConvTranspose2d      [(1, 1024, 32, 32)]       (1, 256, 64, 64)          4194560   
decoder3.1                     BatchNorm2d          [(1, 256, 64, 64)]        (1, 256, 64, 64)          512       
decoder3.2                     LeakyReLU            [(1, 256, 64, 64)]        (1, 256, 64, 64)          0         
decoder3.3.conv1               Conv2d               [(1, 256, 64, 64)]        (1, 256, 64, 64)          590080    
decoder3.3.bn1                 BatchNorm2d          [(1, 256, 64, 64)]        (1, 256, 64, 64)          512       
decoder3.3.conv2               Conv2d               [(1, 256, 64, 64)]        (1, 256, 64, 64)          590080    
decoder3.3.bn2                 BatchNorm2d          [(1, 256, 64, 64)]        (1, 256, 64, 64)          512       
decoder2.0                     ConvTranspose2d      [(1, 512, 64, 64)]        (1, 128, 128, 128)        1048704   
decoder2.1                     BatchNorm2d          [(1, 128, 128, 128)]      (1, 128, 128, 128)        256       
decoder2.2                     LeakyReLU            [(1, 128, 128, 128)]      (1, 128, 128, 128)        0         
decoder2.3.conv1               Conv2d               [(1, 128, 128, 128)]      (1, 128, 128, 128)        147584    
decoder2.3.bn1                 BatchNorm2d          [(1, 128, 128, 128)]      (1, 128, 128, 128)        256       
decoder2.3.conv2               Conv2d               [(1, 128, 128, 128)]      (1, 128, 128, 128)        147584    
decoder2.3.bn2                 BatchNorm2d          [(1, 128, 128, 128)]      (1, 128, 128, 128)        256       
decoder1.0                     ConvTranspose2d      [(1, 256, 128, 128)]      (1, 64, 256, 256)         262208    
decoder1.1                     BatchNorm2d          [(1, 64, 256, 256)]       (1, 64, 256, 256)         128       
decoder1.2                     LeakyReLU            [(1, 64, 256, 256)]       (1, 64, 256, 256)         0         
decoder1.3.conv1               Conv2d               [(1, 64, 256, 256)]       (1, 64, 256, 256)         36928     
decoder1.3.bn1                 BatchNorm2d          [(1, 64, 256, 256)]       (1, 64, 256, 256)         128       
decoder1.3.conv2               Conv2d               [(1, 64, 256, 256)]       (1, 64, 256, 256)         36928     
decoder1.3.bn2                 BatchNorm2d          [(1, 64, 256, 256)]       (1, 64, 256, 256)         128       
final.0                        Conv2d               [(1, 64, 256, 256)]       (1, 64, 256, 256)         36928     
final.1                        BatchNorm2d          [(1, 64, 256, 256)]       (1, 64, 256, 256)         128       
final.2                        LeakyReLU            [(1, 64, 256, 256)]       (1, 64, 256, 256)         0         
final.3                        Conv2d               [(1, 64, 256, 256)]       (1, 3, 256, 256)          195       
final.4                        Sigmoid              [(1, 3, 256, 256)]        (1, 3, 256, 256)          0         
----------------------------------------------------------------------------------------------------
Estimated Forward Pass Memory: 484.50 MB



====================================================================================================
DATA FLOW MAP - DEEP AUTOENCODER
====================================================================================================

    INPUT: [B, 3, 256, 256] - RGB Histology Image
…
